app/src/main/ml/mnist.tflite (tflite, 116208 bytes, 6 tensors)

dense_1/bias f4 [10]
000000 2b 9f 96 3d c7 58 2f 3e 6b 15 a5 bd 18 9e d1 bd
       0.07354578 0.1712371 -0.08060726 -0.10235232
000010 8c 8f a3 bc 91 90 fb bc 04 e7 0a 3d 0a 8d 77 3c
       -0.01996591 -0.030708583 0.03391172 0.01510931
000020 5d a8 b9 bd 26 b2 b9 3d
       -0.09065316 0.09067182

conv2d_3/bias f4 [64]
000000 d8 96 a8 3c 78 1e a5 bc 0e 47 d6 bc c6 85 a4 bc
       0.02057974 -0.02015613 -0.026156928 -0.02008332
000010 7c 55 74 bc 7f 0f fd ba 07 d0 b2 bc 57 50 9c 3c
       -0.014912959 -0.0019306986 -0.02182771 0.019081278
000020 70 b0 0b bd 97 d1 df bd 73 81 b7 3d 92 ea 95 3c
       -0.03410381 -0.10928648 0.08960237 0.018300328
000030 2f 6b 67 bd 93 1b 1d bd fe 44 aa 3c a4 5f 30 bc
       -0.056498703 -0.038356375 0.020784851 -0.01076499
000040 55 c9 1f bd a9 5f b9 bc cc ed 44 bd 35 ea 03 3d
       -0.039010365 -0.022628622 -0.048078343 0.03220578
000050 f5 99 02 bc d4 ed 35 bd df 60 96 3c 86 a7 f4 bc
       -0.0079712765 -0.044416264 0.018356739 -0.029865038
000060 63 e0 69 bc f5 dc b7 3d 4f 57 96 3d b5 ad 49 bc
       -0.014274689 0.08977691 0.073408715 -0.012309481
000070 eb 5f bb bc a6 7d a9 3b 8e df 8d bd 96 29 9b bc
       -0.022872886 0.005172449 -0.06927405 -0.018940728
000080 38 86 bc bc 5e 9f 02 bd 3e 83 f1 3a bb 05 37 bc
       -0.02301322 -0.031890266 0.0018425954 -0.0111708
000090 ee 43 2d bd 78 4d 16 3b aa 2d 92 bc 7f 33 9f bc
       -0.04230111 0.0022934359 -0.01784404 -0.019433735
0000a0 a9 d3 9f 3d 60 e4 a3 bc 76 db 50 3d 66 be 69 bc
       0.07804043 -0.020006359 0.050990544 -0.014266586
0000b0 d1 06 85 bd 0e 0b b2 3b 51 2c b0 bc 91 78 33 3d
       -0.06495441 0.0054334467 -0.021505507 0.043816153
0000c0 a9 98 f5 3c 7d 22 e1 3c 65 26 5d bc 63 bb 46 bc
       0.02998002 0.027482266 -0.0134979235 -0.012129637
0000d0 c0 f4 15 3c 88 3e 5a bc e4 ff 84 3c 54 ef 3e bd
       0.009152591 -0.013320573 0.0162353 -0.04661496
0000e0 c0 f4 5c 3c c0 00 e9 3c e0 3c 0b bc 3a ab 7f bc
       0.013486087 0.02844274 -0.0084984 -0.015604788
0000f0 2d d2 9b bb f3 b7 85 bd 68 b4 c5 bc 86 fd d4 bc
       -0.0047552795 -0.06529226 -0.024133876 -0.025999796

conv2d_2/bias f4 [32]
000000 45 96 21 bc 4c f1 f1 3c e8 32 6f 3b 1e 90 09 3d
       -0.009862487 0.029534005 0.0036498848 0.033584706
000010 ef 34 e5 bb d5 1e 23 3d 86 44 a3 bb 2d 58 cc 39
       -0.0069948356 0.039824326 -0.004982534 0.00038975608
000020 5a 0c f3 b9 77 e3 bc bb ec d9 1d bc b8 ec 12 bb
       -0.00046357774 -0.0057644206 -0.009634476 -0.0022418927
000030 ed 65 01 bc fb 9d 38 bc 50 07 f1 3c 8e 2b 17 bc
       -0.007897836 -0.011268134 0.029422432 -0.009226693
000040 55 80 e9 bb 96 a8 d6 bd 68 16 7c bb 83 98 84 bb
       -0.007125894 -0.10481374 -0.0038465504 -0.004046501
000050 6c d6 00 bc ce bd 13 bc 91 53 94 3d 01 3b 11 bc
       -0.007863622 -0.009017421 0.072425015 -0.008864165
000060 c3 70 c9 bc 52 b3 b9 bb 30 25 dc 3d ed 89 3f 3c
       -0.024589902 -0.0056671286 0.107492805 0.011690599
000070 f8 26 01 3e a9 6e 95 bb 70 3e 96 3c 29 2a 3c bc
       0.12612522 -0.004560311 0.01834032 -0.011484661

sequential_1/dense_1/MatMul i1 [10, 9216] scale=0.0061445627 zero_point=0
000000 f7 d7 10 fa d9 ef e8 d7 cd c7 0a ff f8 00 fd fe
       -0.055301063 -0.25192708 0.098313004 -0.036867376 -0.23963794 -0.104457565 -0.1474695 -0.25192708 -0.3133727 -0.35024008 0.061445627 -0.0061445627 -0.049156502 0.0 -0.018433688 -0.0122891255
000010 06 03 11 e4 0e 01 e3 ff fb ef e6 00 05 04 1f 04
       0.036867376 0.018433688 0.104457565 -0.17204776 0.08602388 0.0061445627 -0.17819232 -0.0061445627 -0.030722814 -0.104457565 -0.15975863 0.0 0.030722814 0.024578251 0.19048144 0.024578251
000020 02 1e eb fb 0b ad d7 e3 0d 1c 0a fe 09 b6 b0 e6
       0.0122891255 0.18433689 -0.12903582 -0.030722814 0.06759019 -0.5099987 -0.25192708 -0.17819232 0.07987931 0.17204776 0.061445627 -0.0122891255 0.055301063 -0.45469764 -0.49156502 -0.15975863
000030 fb 0a ec 01 e5 c1 f9 15 f6 df 01 05 d6 0f fb f7
       -0.030722814 0.061445627 -0.122891255 0.0061445627 -0.1659032 -0.38710746 -0.04301194 0.12903582 -0.061445627 -0.20277058 0.0061445627 0.030722814 -0.25807163 0.09216844 -0.030722814 -0.055301063
000040 04 ee 02 00 d7 00 f1 f3 e1 f7 10 0c f5 ea 0b fe
       0.024578251 -0.110602126 0.0122891255 0.0 -0.25192708 0.0 -0.09216844 -0.07987931 -0.19048144 -0.055301063 0.098313004 0.07373475 -0.06759019 -0.13518038 0.06759019 -0.0122891255
000050 04 ff 18 f2 f6 04 f0 01 02 df e5 fd ff fe 0f 02
       0.024578251 -0.0061445627 0.1474695 -0.08602388 -0.061445627 0.024578251 -0.098313004 0.0061445627 0.0122891255 -0.20277058 -0.1659032 -0.018433688 -0.0061445627 -0.0122891255 0.09216844 0.0122891255
000060 fe 14 f2 f9 07 d3 ea ed 02 0d ea 01 f2 bd df ec
       -0.0122891255 0.122891255 -0.08602388 -0.04301194 0.04301194 -0.27650532 -0.13518038 -0.116746694 0.0122891255 0.07987931 -0.13518038 0.0061445627 -0.08602388 -0.4116857 -0.20277058 -0.122891255
000070 f3 0e e6 ff f6 e6 fa 04 fd f1 ea f9 d9 fd f4 ee
       -0.07987931 0.08602388 -0.15975863 -0.0061445627 -0.061445627 -0.15975863 -0.036867376 0.024578251 -0.018433688 -0.09216844 -0.13518038 -0.04301194 -0.23963794 -0.018433688 -0.07373475 -0.110602126
000080 f0 09 fe 06 cc 0b fe e8 00 f8 0c 0a f8 ef 01 00
       -0.098313004 0.055301063 -0.0122891255 0.036867376 -0.31951725 0.06759019 -0.0122891255 -0.1474695 0.0 -0.049156502 0.07373475 0.061445627 -0.049156502 -0.104457565 0.0061445627 0.0
000090 07 00 17 d8 08 08 ee 01 fc f1 e5 fe 02 f1 0e 0d
       0.04301194 0.0 0.14132494 -0.24578251 0.049156502 0.049156502 -0.110602126 0.0061445627 -0.024578251 -0.09216844 -0.1659032 -0.0122891255 0.0122891255 -0.09216844 0.08602388 0.07987931
0000a0 04 06 ee f3 08 e3 e5 ed 06 07 fb 04 03 c7 f2 e8
       0.024578251 0.036867376 -0.110602126 -0.07987931 0.049156502 -0.17819232 -0.1659032 -0.116746694 0.036867376 0.04301194 -0.030722814 0.024578251 0.018433688 -0.35024008 -0.08602388 -0.1474695
0000b0 e9 1b f3 fc f5 fb e5 02 f4 ef 00 f7 c9 04 fd 03
       -0.14132494 0.1659032 -0.07987931 -0.024578251 -0.06759019 -0.030722814 -0.1659032 0.0122891255 -0.07373475 -0.104457565 0.0 -0.055301063 -0.33795094 0.024578251 -0.018433688 0.018433688
0000c0 f7 06 07 01 d3 f1 ff e1 fc fa ff 02 fa e6 1e 02
       -0.055301063 0.036867376 0.04301194 0.0061445627 -0.27650532 -0.09216844 -0.0061445627 -0.19048144 -0.024578251 -0.036867376 -0.0061445627 0.0122891255 -0.036867376 -0.15975863 0.18433689 0.0122891255
0000d0 03 06 11 ce fb f9 f8 02 13 00 ed 01 00 f3 14 01
       0.018433688 0.036867376 0.104457565 -0.30722815 -0.030722814 -0.04301194 -0.049156502 0.0122891255 0.116746694 0.0 -0.116746694 0.0061445627 0.0 -0.07987931 0.122891255 0.0061445627
0000e0 00 08 ee f7 f4 de e5 f1 09 0a e0 02 f0 d3 f3 ec
       0.0 0.049156502 -0.110602126 -0.055301063 -0.07373475 -0.20891513 -0.1659032 -0.09216844 0.055301063 0.061445627 -0.19662601 0.0122891255 -0.098313004 -0.27650532 -0.07987931 -0.122891255
0000f0 e8 11 d2 ff ec fb e9 d6 03 f1 fd 02 c6 03 e9 08
       -0.1474695 0.104457565 -0.28264987 -0.0061445627 -0.122891255 -0.030722814 -0.14132494 -0.25807163 0.018433688 -0.09216844 -0.018433688 0.0122891255 -0.35638463 0.018433688 -0.14132494 0.049156502

sequential_1/conv2d_2/Conv2D f4 [32, 3, 3, 1]
000000 a1 0a 15 3e 1a ed 37 3e f1 27 af 3e c9 f8 02 be
       0.14554836 0.17961541 0.3421016 -0.12790217
000010 c6 e6 3d 3e ec b3 6b be cd 4a 12 3d d2 ae 93 3b
       0.18545064 -0.23017853 0.035715867 0.004506924
000020 86 3a ab be 24 1f 5d bd df a3 6f 3e 30 8e 71 3e
       -0.33443087 -0.053984776 0.23402356 0.23589396
000030 e5 1d 3a 3e f3 70 30 bc e3 87 8a 3e 91 9c a2 be
       0.18175466 -0.010769117 0.27056798 -0.31760076
000040 3a 98 b8 be 47 0f a7 be d9 87 d4 3e 02 90 cb bd
       -0.3605364 -0.32628843 0.41509894 -0.09939577
000050 d7 68 a4 be fe 5f d9 3d b8 30 0b 3e 8d 4b 49 3e
       -0.32111236 0.10614012 0.13592803 0.19657727
000060 a1 fa c0 be 19 4f b0 3c 32 3f da bc 6f dc 27 bf
       -0.37691215 0.021522092 -0.026641462 -0.6557073
000070 fb c0 8f be 5f aa 94 3c 02 58 31 be 62 59 c3 3c
       -0.2807692 0.018147646 -0.17318729 0.023846332
000080 1e 26 29 3e 60 f7 5e be 92 56 0e 3e aa 91 a0 3e
       0.16518447 -0.21774054 0.13900211 0.31361133
000090 dc 3c 83 3e a3 f6 33 3e 94 44 53 3e 95 da fb 3d
       0.2563237 0.17574553 0.20631629 0.122975506
0000a0 24 50 b2 3d 46 12 3b be 05 a1 07 3d 57 de 93 be
       0.08706692 -0.1826869 0.033112545 -0.2888057
0000b0 92 6d d0 be 99 3c 05 3e ab e6 9f 3e 67 9c 59 3e
       -0.40708596 0.13011397 0.31230673 0.21251069
0000c0 1a d4 ef 3d a9 87 da 3d 7d ce 48 bd 91 2e d6 be
       0.11710377 0.10670406 -0.049025048 -0.41832402
0000d0 5c 54 af be 7f 0f 11 bf 69 bf c9 3e dc 35 99 3c
       -0.3424405 -0.5666427 0.39403847 0.01870244
0000e0 3c 7f 95 3d 29 6d 1a bd af 63 98 be ba a0 3f be
       0.07299659 -0.03770176 -0.29763553 -0.18713656
0000f0 8d f4 3b bd 41 88 19 3d 01 13 68 3e 46 f7 c6 3e
       -0.04588752 0.037483457 0.226635 0.3886053
000100 ee d5 8d 3d 9a 5c f0 3d e7 8f a0 3e 1a f5 63 be
       0.069255695 0.11736412 0.3135979 -0.22261468
000110 bd b5 ae be b8 db c7 3e 7b 00 90 bd cd 5b 0f bf
       -0.3412303 0.3903482 -0.07031342 -0.5599945
000120 20 bd 91 3e ef 09 21 3c d6 cf 11 bd dc 38 97 3e
       0.28464603 0.0098290285 -0.0355986 0.29535568
000130 7f 32 f8 bc ac ba d4 be ea b5 a2 3e d0 31 90 bb
       -0.030297516 -0.4154867 0.31779414 -0.0044004694
000140 f5 13 ce be 87 18 04 3e 94 d7 c1 bd 83 10 cf be
       -0.402496 0.12899981 -0.094649464 -0.40442285
000150 6b c7 01 3e 78 26 b0 bb 41 61 aa be 34 ef a3 3e
       0.12673728 -0.0053756796 -0.33277324 0.32018435
000160 b5 ed 87 3e 82 33 c2 3d 34 fe 7f 3e 23 5f d4 bd
       0.26548544 0.094824806 0.24999315 -0.103697084
000170 fa d7 a5 be 10 e3 8b 3e ab 34 4a be 03 81 8e ba
       -0.3239134 0.27321672 -0.19746654 -0.0010872189
000180 96 bd 0f 3e c6 e4 9a bc 62 ac ab 3d 30 7d 6e 3d
       0.14037165 -0.018907916 0.08382489 0.058224857
000190 65 9b 81 be 9a 74 d0 bd 0f ca 5c 3c ed 47 64 be
       -0.2531387 -0.1017849 0.013475909 -0.22293063
0001a0 54 a8 cd bd be 11 8a 3e 99 72 77 3e 4f 92 6c 3e
       -0.10041872 0.2696666 0.2416481 0.23102687
0001b0 3b fa 04 3d 55 1a cd bd ee 92 29 3e c1 ad 37 bd
       0.0324652 -0.10014788 0.16559955 -0.04484344
0001c0 8e e9 11 be 44 5b 95 bd de fa e8 3e 4c a4 21 3e
       -0.1424925 -0.07292798 0.45503896 0.1578533
0001d0 bd 59 ed bd b6 23 9b 3e b5 b7 9d bb 46 ad 91 3d
       -0.11589382 0.30300683 -0.0048131594 0.071131274
0001e0 09 c8 31 3d da 40 bf be 23 66 f9 3d 9c 68 59 bc
       0.04340366 -0.37354165 0.12177684 -0.01326957
0001f0 ad 5f 8a 3d 5e 85 d7 bc 59 c3 14 bf 5a 07 15 be
       0.0675653 -0.026308712 -0.58110577 -0.14553586
000200 c3 dd 3d 3c 61 3e b7 be 21 72 97 bd 1b b0 59 3e
       0.011588517 -0.3578978 -0.07394815 0.21258585
000210 62 1c 7c be de cf 6b 3c 7c dc c6 3e e6 f9 13 3d
       -0.24620202 0.014392821 0.3884009 0.036126994
000220 2d 49 a9 bd 9b 9b c9 bc 95 c9 34 3e 24 53 36 be
       -0.0826591 -0.024610331 0.17655022 -0.17805153
000230 72 32 a1 bc 4f 4a 92 3e 2f 47 14 3e ac 04 d8 3d
       -0.019677375 0.28572318 0.1448028 0.10547766
000240 e6 08 92 3e b9 21 6b 3e 67 e6 68 3e e9 0f a7 3e
       0.28522414 0.22962083 0.22744142 0.32629326
000250 ce 58 a6 3b e6 a5 a4 be 03 33 ae 3d 2f e8 1d be
       0.0050765043 -0.3215782 0.085058235 -0.15420602
000260 90 42 0b bf f8 dc 27 bf 44 db 13 be 3f 70 e5 3d
       -0.5439844 -0.65571547 -0.14439112 0.1120305
000270 f8 5d e2 3c 83 ac 8f 3e db 9b 0e 3e c9 f0 93 3e
       0.027632698 0.28061303 0.13926642 0.28894642
000280 3d 6f 93 3e 3c d1 1b be 62 5c aa be 02 f3 97 bd
       0.28795806 -0.15216535 -0.33273607 -0.07419397
000290 7f c6 8a 3e d4 06 16 be 02 3a 13 3c d4 d7 67 3d
       0.27104566 -0.14651042 0.008985998 0.056602314
0002a0 d2 7e 39 be 9f 95 32 3e c2 24 a3 3e 89 56 4e 3e
       -0.18114784 0.17439888 0.3186398 0.20150198
0002b0 08 b3 95 3e e4 27 b2 3e 3e 4b 85 be d4 8c 94 bd
       0.29238153 0.3479606 -0.26033968 -0.07253423
0002c0 a5 11 82 3e 57 2f f2 be e7 80 b6 be a2 96 3e 3e
       0.25404087 -0.47301742 -0.3564522 0.1861215
0002d0 a6 55 b1 3d 46 8a 04 bc 96 21 86 3e ba 57 60 be
       0.08658914 -0.008089608 0.261975 -0.21908465
0002e0 c5 88 94 3c 96 15 43 3c cc c7 36 be f0 e5 dd bd
       0.018131623 0.011907002 -0.17849654 -0.10834873
0002f0 0c f5 6f 3e eb 1d 93 bd 1b 6d ba be e7 fa 97 be
       0.23433322 -0.07183441 -0.36411366 -0.2968361
000300 51 bb c0 3d 31 95 be 3d 10 c4 31 3e 07 05 75 3e
       0.09410728 0.093058 0.17359948 0.23927699
000310 8b 3e a7 bc aa ea 67 3e 2a 1b 65 bf d0 11 62 be
       -0.020415565 0.22648111 -0.89494574 -0.22077107
000320 76 c2 ee bd dc 3f cb be f0 09 48 bd a5 04 a1 3e
       -0.11658184 -0.39697158 -0.048837602 0.31448856
000330 d2 fb e7 be d3 a4 90 bd 95 09 66 3e b5 b4 01 3e
       -0.4530931 -0.07062688 0.22464593 0.1266659
000340 13 ae 82 3d 3c 35 85 3d 8f 38 3f be 30 72 d6 bd
       0.06380858 0.06504294 -0.18673919 -0.10470998
000350 e7 61 f1 bd cb cd ed 3d c6 64 ad 3d 24 50 b3 3e
       -0.117862515 0.116115175 0.08466487 0.3502208
000360 21 1a 88 3e 5e 52 1c 3e 54 c8 93 3e 6d af 23 be
       0.26582435 0.15265796 0.28863776 -0.15984888
000370 82 5c 05 be 0d ac 80 3d 5e 6c 10 3e b5 50 8b bd
       -0.1302357 0.06282816 0.14103839 -0.06802503
000380 67 45 f1 3d 14 1d 9a 3e e0 07 5a 3e 9c 5d af 3e
       0.117808156 0.3010031 0.21292067 0.34251106
000390 d2 7c 1e be 2f c2 80 3d c4 93 6f 3d 3a 0f d2 be
       -0.15477303 0.062870376 0.05849053 -0.41027242
0003a0 8e 7b ab be ee e8 72 3c ad 83 1b bf ca e0 8b be
       -0.33492702 0.014826043 -0.60747796 -0.27319938
0003b0 6c d5 2a bf cf f7 ce 3c 42 cd 9a 3d 74 a2 91 be
       -0.66731906 0.025264649 0.07558681 -0.28444254
0003c0 92 07 58 3e 64 cc 92 3e ba ac b7 3c 80 e9 01 3e
       0.21096638 0.28671563 0.02242123 0.1268673
0003d0 b6 6a 9e be b8 4c 0a bf 81 09 10 3e 17 5e 46 3e
       -0.3094079 -0.54023314 0.14066125 0.1937183
0003e0 57 3d b3 be 45 bc c5 3e ff e1 22 3e 43 72 2e bd
       -0.35007736 0.386202 0.15906523 -0.042589437
0003f0 03 33 96 3e 1e ea 50 3e 65 40 95 be 91 c7 69 3e
       0.29335794 0.20401809 -0.29150692 0.22830035

sequential_1/conv2d_3/Conv2D i1 [64, 3, 3, 32]
000000 0c f2 e4 2b 01 cf f5 02 ff e2 f5 de 06 fe 30 03
       12 -14 -28 43 1 -49 -11 2 -1 -30 -11 -34 6 -2 48 3
000010 08 26 30 d7 08 f1 38 fc 05 c9 9b d7 22 1a 10 23
       8 38 48 -41 8 -15 56 -4 5 -55 -101 -41 34 26 16 35
000020 04 10 ed 0c 11 04 fb 10 10 de fd d1 07 03 03 fd
       4 16 -19 12 17 4 -5 16 16 -34 -3 -47 7 3 3 -3
000030 06 23 f8 cd eb d1 f8 fe ff f2 a3 d9 0f e4 e8 03
       6 35 -8 -51 -21 -47 -8 -2 -1 -14 -93 -39 15 -28 -24 3
000040 04 13 04 17 0d 12 00 0a 13 d8 f4 de ef 11 12 00
       4 19 4 23 13 18 0 10 19 -40 -12 -34 -17 17 18 0
000050 04 f0 02 0b f5 f3 17 00 09 03 c3 e0 06 f7 06 fb
       4 -16 2 11 -11 -13 23 0 9 3 -61 -32 6 -9 6 -5
000060 0b ee f8 18 ff bf 06 10 12 fe fd e9 03 ff 09 08
       11 -18 -8 24 -1 -65 6 16 18 -2 -3 -23 3 -1 9 8
000070 08 fe 15 e9 02 e6 17 04 ff f0 b2 f8 12 21 c1 fe
       8 -2 21 -23 2 -26 23 4 -1 -16 -78 -8 18 33 -63 -2
000080 0a 03 06 ec 09 03 f9 01 06 12 0b fd 01 03 f1 fa
       10 3 6 -20 9 3 -7 1 6 18 11 -3 1 3 -15 -6
000090 03 e9 e1 e2 f5 fd ed 07 04 ff dc fd fe e5 d4 d6
       3 -23 -31 -30 -11 -3 -19 7 4 -1 -36 -3 -2 -27 -44 -42
0000a0 e8 03 f7 0a f4 10 fd 01 f8 0d f9 0c 03 f9 fe 03
       -24 3 -9 10 -12 16 -3 1 -8 13 -7 12 3 -7 -2 3
0000b0 f5 e7 0b 03 04 0d 0b ff fb 07 ed 0b 02 0a fe 02
       -11 -25 11 3 4 13 11 -1 -5 7 -19 11 2 10 -2 2
0000c0 ea f4 03 fd da 9c 0a 04 fd 13 fd 08 01 fe fc 00
       -22 -12 3 -3 -38 -100 10 4 -3 19 -3 8 1 -2 -4 0
0000d0 f4 ea fc 11 11 fb 05 06 02 00 e4 15 e3 21 d0 fa
       -12 -22 -4 17 17 -5 5 6 2 0 -28 21 -29 33 -48 -6
0000e0 ea dc 04 d9 c2 81 ff 00 05 1c 0a 18 10 fe d1 0d
       -22 -36 4 -39 -62 -127 -1 0 5 28 10 24 16 -2 -47 13
0000f0 de e6 de d9 fb 09 e2 04 fe c7 f6 1d cf e2 e4 e0
       -34 -26 -34 -39 -5 9 -30 4 -2 -57 -10 29 -49 -30 -28 -32
